…
OD', 'CD', 'CU', 'FE', 'NI', 'SR', 'BR', 'CO', 'HG'], ['SO4', 'NAG', 'PO4', 'EDO', 'ACT', 'MAN', 'HEM', 'FMT', 'BMA', 'ADP', 'FAD', 'NAD', 'NO3', 'GLC', 'ATP', 'NAP', 'BGC', 'GDP', 'FUC', 'FES', 'FMN', 'GAL', 'GTP', 'PLP', 'MLI', 'ANP', 'H4B', 'AMP', 'NDP', 'SAH', 'OXY'], ['PLM', 'CLR', 'CDL', 'RET']]}
{'run_name': 'i_v3_0_2021-05-30_11-42', 'output_dir': 'save', 'reload': True, 'device': 'cuda', 'num_epochs': 100, 'batch_size': 1, 'log_step': 1024, 'eval_step': 8192, 'eval_size': 1024, 'learning_rate': 1e-05, 'pos_weight_factor': 0.5, 'comment': ''}
>>> Model
Model(
  (em): Sequential(
    (0): Linear(in_features=123, out_features=32, bias=True)
    (1): ELU(alpha=1.0)
    (2): Linear(in_features=32, out_features=32, bias=True)
    (3): ELU(alpha=1.0)
    (4): Linear(in_features=32, out_features=32, bias=True)
  )
  (sum): Sequential(
    (0): StateUpdateLayer(
      (su): StateUpdate(
        (nqm): Sequential(
          (0): Linear(in_features=64, out_features=32, bias=True)
          (1): ELU(alpha=1.0)
          (2): Linear(in_features=32, out_features=32, bias=True)
          (3): ELU(alpha=1.0)
          (4): Linear(in_features=32, out_features=12, bias=True)
        )
        (eqkm): Sequential(
          (0): Linear(in_features=193, out_features=32, bias=True)
          (1): ELU(alpha=1.0)
          (2): Linear(in_features=32, out_features=32, bias=True)
          (3): ELU(alpha=1.0)
          (4): Linear(in_features=32, out_features=3, bias=True)
        )
        (epkm): Sequential(
          (0): Linear(in_features=193, out_features=32, bias=True)
          (1): ELU(alpha=1.0)
          (2): Linear(in_features=32, out_features=32, bias=True)
          (3): ELU(alpha=1.0)
          (4): Linear(in_features=32, out_features=9, bias=True)
        )
        (evm): Sequential(
          (0): Linear(in_features=193, out_features=64, bias=True)
          (1): ELU(alpha=1.0)
          (2): Linear(in_features=64, out_features=64, bias=True)
          (3): ELU(alpha=1.0)
          (4): Linear(in_features=64, out_features=64, bias=True)
        )
        (qpm): Sequential(
          (0): Linear(in_features=64, out_features=32, bias=True)
          (1): ELU(alpha=1.0)
          (2): Linear(in_features=32, out_features=32, bias=True)
          (3): ELU(alpha=1.0)
          (4): Linear(in_features=32, out_features=32, bias=True)
        )
        (ppm): Sequential(
          (0): Linear(in_features=64, out_features=32, bias=False)
        )
      )
    )
    (1): StateUpdateLayer(
      (su): StateUpdate(
        (nqm): Sequential(
          (0): Linear(in_features=64, out_features=32, bias=True)
          (1): ELU(alpha=1.0)
          (2): Linear(in_features=32, out_features=32, bias=True)
          (3): ELU(alpha=1.0)
          (4): Linear(in_features=32, out_features=12, bias=True)
        )
        (eqkm): Sequential(
          (0): Linear(in_features=193, out_features=32, bias=True)
          (1): ELU(alpha=1.0)
          (2): Linear(in_features=32, out_features=32, bias=True)
          (3): ELU(alpha=1.0)
          (4): Linear(in_features=32, out_features=3, bias=True)
        )
        (epkm): Sequential(
          (0): Linear(in_features=193, out_features=32, bias=True)
          (1): ELU(alpha=1.0)
          (2): Linear(in_features=32, out_features=32, bias=True)
          (3): ELU(alpha=1.0)
          (4): Linear(in_features=32, out_features=9, bias=True)
        )
        (evm): Sequential(
          (0): Linear(in_features=193, out_features=64, bias=True)
          (1): ELU(alpha=1.0)
          (2): Linear(in_features=64, out_features=64, bias=True)
          (3): ELU(alpha=1.0)
          (4): Linear(in_features=64, out_features=64, bias=True)
        )
        (qpm): Sequential(
          (0): Linear(in_features=64, out_features=32, bias=True)
          (1): ELU(alpha=1.0)
          (2): Linear(in_features=32, out_features=32, bias=True)
          (3): ELU(alpha=1.0)
          (4): Linear(in_features=32, out_features=32, bias=True)
        )
        (ppm): Sequential(
          (0): Linear(in_features=64, out_features=32, bias=False)
        )
      )
    )
    (2): StateUpdateLayer(
      (su): StateUpdate(
        (nqm): Sequential(
          (0): Linear(in_features=64, out_features=32, bias=True)
          (1): ELU(alpha=1.0)
          (2): Linear(in_features=32, out_features=32, bias=True)
          (3): ELU(alpha=1.0)
          (4): Linear(in_features=32, out_features=12, bias=True)
        )
        (eqkm): Sequential(
          (0): Linear(in_features=193, out_features=32, bias=True)
          (1): ELU(alpha=1.0)
          (2): Linear(in_features=32, out_features=32, bias=True)
          (3): ELU(alpha=1.0)
          (4): Linear(in_features=32, out_features=3, bias=True)
        )
        (epkm): Sequential(
          (0): Linear(in_features=193, out_features=32, bias=True)
          (1): ELU(alpha=1.0)
          (2): Linear(in_features=32, out_features=32, bias=True)
          (3): ELU(alpha=1.0)
          (4): Linear(in_features=32, out_features=9, bias=True)
        )
        (evm): Sequential(
          (0): Linear(in_features=193, out_features=64, bias=True)
          (1): ELU(alpha=1.0)
          (2): Linear(in_features=64, out_features=64, bias=True)
          (3): ELU(alpha=1.0)
          (4): Linear(in_features=64, out_features=64, bias=True)
        )
        (qpm): Sequential(
          (0): Linear(in_features=64, out_features=32, bias=True)
          (1): ELU(alpha=1.0)
          (2): Linear(in_features=32, out_features=32, bias=True)
          (3): ELU(alpha=1.0)
          (4): Linear(in_features=32, out_features=32, bias=True)
        )
        (ppm): Sequential(
          (0): Linear(in_features=64, out_features=32, bias=False)
        )
      )
    )
    (3): StateUpdateLayer(
      (su): StateUpdate(
        (nqm): Sequential(
          (0): Linear(in_features=64, out_features=32, bias=True)
          (1): ELU(alpha=1.0)
          (2): Linear(in_features=32, out_features=32, bias=True)
          (3): ELU(alpha=1.0)
          (4): Linear(in_features=32, out_features=12, bias=True)
        )
        (eqkm): Sequential(
          (0): Linear(in_features=193, out_features=32, bias=True)
          (1): ELU(alpha=1.0)
          (2): Linear(in_features=32, out_features=32, bias=True)
          (3): ELU(alpha=1.0)
          (4): Linear(in_features=32, out_features=3, bias=True)
        )
        (epkm): Sequential(
          (0): Linear(in_features=193, out_features=32, bias=True)
          (1): ELU(alpha=1.0)
          (2): Linear(in_features=32, out_features=32, bias=True)
          (3): ELU(alpha=1.0)
          (4): Linear(in_features=32, out_features=9, bias=True)
        )
        (evm): Sequential(
          (0): Linear(in_features=193, out_features=64, bias=True)
          (1): ELU(alpha=1.0)
          (2): Linear(in_features=64, out_features=64, bias=True)
          (3): ELU(alpha=1.0)
          (4): Linear(in_features=64, out_features=64, bias=True)
        )
        (qpm): Sequential(
          (0): Linear(in_features=64, out_features=32, bias=True)
          (1): ELU(alpha=1.0)
          (2): Linear(in_features=32, out_features=32, bias=True)
          (3): ELU(alpha=1.0)
          (4): Linear(in_features=32, out_features=32, bias=True)
        )
        (ppm): Sequential(
          (0): Linear(in_features=64, out_features=32, bias=False)
        )
      )
    )
    (4): StateUpdateLayer(
      (su): StateUpdate(
        (nqm): Sequential(
          (0): Linear(in_features=64, out_features=32, bias=True)
          (1): ELU(alpha=1.0)
          (2): Linear(in_features=32, out_features=32, bias=True)
          (3): ELU(alpha=1.0)
          (4): Linear(in_features=32, out_features=12, bias=True)
        )
        (eqkm): Sequential(
          (0): Linear(in_features=193, out_features=32, bias=True)
          (1): ELU(alpha=1.0)
          (2): Linear(in_features=32, out_features=32, bias=True)
          (3): ELU(alpha=1.0)
          (4): Linear(in_features=32, out_features=3, bias=True)
        )
        (epkm): Sequential(
          (0): Linear(in_features=193, out_features=32, bias=True)
          (1): ELU(alpha=1.0)
          (2): Linear(in_features=32, out_features=32, bias=True)
          (3): ELU(alpha=1.0)
          (4): Linear(in_features=32, out_features=9, bias=True)
        )
        (evm): Sequential(
          (0): Linear(in_features=193, out_features=64, bias=True)
          (1): ELU(alpha=1.0)
          (2): Linear(in_features=64, out_features=64, bias=True)
          (3): ELU(alpha=1.0)
          (4): Linear(in_features=64, out_features=64, bias=True)
        )
        (qpm): Sequential(
          (0): Linear(in_features=64, out_features=32, bias=True)
          (1): ELU(alpha=1.0)
          (2): Linear(in_features=32, out_features=32, bias=True)
          (3): ELU(alpha=1.0)
          (4): Linear(in_features=32, out_features=32, bias=True)
        )
        (ppm): Sequential(
          (0): Linear(in_features=64, out_features=32, bias=False)
        )
      )
    )
    (5): StateUpdateLayer(
      (su): StateUpdate(
        (nqm): Sequential(
          (0): Linear(in_features=64, out_features=32, bias=True)
          (1): ELU(alpha=1.0)
          (2): Linear(in_features=32, out_features=32, bias=True)
          (3): ELU(alpha=1.0)
          (4): Linear(in_features=32, out_features=12, bias=True)
        )
        (eqkm): Sequential(
          (0): Linear(in_features=193, out_features=32, bias=True)
          (1): ELU(alpha=1.0)
          (2): Linear(in_features=32, out_features=32, bias=True)
          (3): ELU(alpha=1.0)
          (4): Linear(in_features=32, out_features=3, bias=True)
        )
        (epkm): Sequential(
          (0): Linear(in_features=193, out_features=32, bias=True)
          (1): ELU(alpha=1.0)
          (2): Linear(in_features=32, out_features=32, bias=True)
          (3): ELU(alpha=1.0)
          (4): Linear(in_features=32, out_features=9, bias=True)
        )
        (evm): Sequential(
          (0): Linear(in_features=193, out_features=64, bias=True)
          (1): ELU(alpha=1.0)
          (2): Linear(in_features=64, out_features=64, bias=True)
          (3): ELU(alpha=1.0)
          (4): Linear(in_features=64, out_features=64, bias=True)
        )
        (qpm): Sequential(
          (0): Linear(in_features=64, out_features=32, bias=True)
          (1): ELU(alpha=1.0)
          (2): Linear(in_features=32, out_features=32, bias=True)
          (3): ELU(alpha=1.0)
          (4): Linear(in_features=32, out_features=32, bias=True)
        )
        (ppm): Sequential(
          (0): Linear(in_features=64, out_features=32, bias=False)
        )
      )
    )
    (6): StateUpdateLayer(
      (su): StateUpdate(
        (nqm): Sequential(
          (0): Linear(in_features=64, out_features=32, bias=True)
          (1): ELU(alpha=1.0)
          (2): Linear(in_features=32, out_features=32, bias=True)
          (3): ELU(alpha=1.0)
          (4): Linear(in_features=32, out_features=12, bias=True)
        )
        (eqkm): Sequential(
          (0): Linear(in_features=193, out_features=32, bias=True)
          (1): ELU(alpha=1.0)
          (2): Linear(in_features=32, out_features=32, bias=True)
          (3): ELU(alpha=1.0)
          (4): Linear(in_features=32, out_features=3, bias=True)
        )
        (epkm): Sequential(
          (0): Linear(in_features=193, out_features=32, bias=True)
          (1): ELU(alpha=1.0)
          (2): Linear(in_features=32, out_features=32, bias=True)
          (3): ELU(alpha=1.0)
          (4): Linear(in_features=32, out_features=9, bias=True)
        )
        (evm): Sequential(
          (0): Linear(in_features=193, out_features=64, bias=True)
          (1): ELU(alpha=1.0)
          (2): Linear(in_features=64, out_features=64, bias=True)
          (3): ELU(alpha=1.0)
          (4): Linear(in_features=64, out_features=64, bias=True)
        )
        (qpm): Sequential(
          (0): Linear(in_features=64, out_features=32, bias=True)
          (1): ELU(alpha=1.0)
          (2): Linear(in_features=32, out_features=32, bias=True)
          (3): ELU(alpha=1.0)
          (4): Linear(in_features=32, out_features=32, bias=True)
        )
        (ppm): Sequential(
          (0): Linear(in_features=64, out_features=32, bias=False)
        )
      )
    )
    (7): StateUpdateLayer(
      (su): StateUpdate(
        (nqm): Sequential(
          (0): Linear(in_features=64, out_features=32, bias=True)
          (1): ELU(alpha=1.0)
          (2): Linear(in_features=32, out_features=32, bias=True)
          (3): ELU(alpha=1.0)
          (4): Linear(in_features=32, out_features=12, bias=True)
        )
        (eqkm): Sequential(
          (0): Linear(in_features=193, out_features=32, bias=True)
          (1): ELU(alpha=1.0)
          (2): Linear(in_features=32, out_features=32, bias=True)
          (3): ELU(alpha=1.0)
          (4): Linear(in_features=32, out_features=3, bias=True)
        )
        (epkm): Sequential(
          (0): Linear(in_features=193, out_features=32, bias=True)
          (1): ELU(alpha=1.0)
          (2): Linear(in_features=32, out_features=32, bias=True)
          (3): ELU(alpha=1.0)
          (4): Linear(in_features=32, out_features=9, bias=True)
        )
        (evm): Sequential(
          (0): Linear(in_features=193, out_features=64, bias=True)
          (1): ELU(alpha=1.0)
          (2): Linear(in_features=64, out_features=64, bias=True)
          (3): ELU(alpha=1.0)
          (4): Linear(in_features=64, out_features=64, bias=True)
        )
        (qpm): Sequential(
          (0): Linear(in_features=64, out_features=32, bias=True)
          (1): ELU(alpha=1.0)
          (2): Linear(in_features=32, out_features=32, bias=True)
          (3): ELU(alpha=1.0)
          (4): Linear(in_features=32, out_features=32, bias=True)
        )
        (ppm): Sequential(
          (0): Linear(in_features=64, out_features=32, bias=False)
        )
      )
    )
    (8): StateUpdateLayer(
      (su): StateUpdate(
        (nqm): Sequential(
          (0): Linear(in_features=64, out_features=32, bias=True)
          (1): ELU(alpha=1.0)
          (2): Linear(in_features=32, out_features=32, bias=True)
          (3): ELU(alpha=1.0)
          (4): Linear(in_features=32, out_features=12, bias=True)
        )
        (eqkm): Sequential(
          (0): Linear(in_features=193, out_features=32, bias=True)
          (1): ELU(alpha=1.0)
          (2): Linear(in_features=32, out_features=32, bias=True)
          (3): ELU(alpha=1.0)
          (4): Linear(in_features=32, out_features=3, bias=True)
        )
        (epkm): Sequential(
          (0): Linear(in_features=193, out_features=32, bias=True)
          (1): ELU(alpha=1.0)
          (2): Linear(in_features=32, out_features=32, bias=True)
          (3): ELU(alpha=1.0)
          (4): Linear(in_features=32, out_features=9, bias=True)
        )
        (evm): Sequential(
          (0): Linear(in_features=193, out_features=64, bias=True)
          (1): ELU(alpha=1.0)
          (2): Linear(in_features=64, out_features=64, bias=True)
          (3): ELU(alpha=1.0)
          (4): Linear(in_features=64, out_features=64, bias=True)
        )
        (qpm): Sequential(
          (0): Linear(in_features=64, out_features=32, bias=True)
          (1): ELU(alpha=1.0)
          (2): Linear(in_features=32, out_features=32, bias=True)
          (3): ELU(alpha=1.0)
          (4): Linear(in_features=32, out_features=32, bias=True)
        )
        (ppm): Sequential(
          (0): Linear(in_features=64, out_features=32, bias=False)
        )
      )
    )
    (9): StateUpdateLayer(
      (su): StateUpdate(
        (nqm): Sequential(
          (0): Linear(in_features=64, out_features=32, bias=True)
          (1): ELU(alpha=1.0)
          (2): Linear(in_features=32, out_features=32, bias=True)
          (3): ELU(alpha=1.0)
          (4): Linear(in_features=32, out_features=12, bias=True)
        )
        (eqkm): Sequential(
          (0): Linear(in_features=193, out_features=32, bias=True)
          (1): ELU(alpha=1.0)
          (2): Linear(in_features=32, out_features=32, bias=True)
          (3): ELU(alpha=1.0)
          (4): Linear(in_features=32, out_features=3, bias=True)
        )
        (epkm): Sequential(
          (0): Linear(in_features=193, out_features=32, bias=True)
          (1): ELU(alpha=1.0)
          (2): Linear(in_features=32, out_features=32, bias=True)
          (3): ELU(alpha=1.0)
          (4): Linear(in_features=32, out_features=9, bias=True)
        )
        (evm): Sequential(
          (0): Linear(in_features=193, out_features=64, bias=True)
          (1): ELU(alpha=1.0)
          (2): Linear(in_features=64, out_features=64, bias=True)
          (3): ELU(alpha=1.0)
          (4): Linear(in_features=64, out_features=64, bias=True)
        )
        (qpm): Sequential(
          (0): Linear(in_features=64, out_features=32, bias=True)
          (1): ELU(alpha=1.0)
          (2): Linear(in_features=32, out_features=32, bias=True)
          (3): ELU(alpha=1.0)
          (4): Linear(in_features=32, out_features=32, bias=True)
        )
        (ppm): Sequential(
          (0): Linear(in_features=64, out_features=32, bias=False)
        )
      )
    )
    (10): StateUpdateLayer(
      (su): StateUpdate(
        (nqm): Sequential(
          (0): Linear(in_features=64, out_features=32, bias=True)
          (1): ELU(alpha=1.0)
          (2): Linear(in_features=32, out_features=32, bias=True)
          (3): ELU(alpha=1.0)
          (4): Linear(in_features=32, out_features=12, bias=True)
        )
        (eqkm): Sequential(
          (0): Linear(in_features=193, out_features=32, bias=True)
          (1): ELU(alpha=1.0)
          (2): Linear(in_features=32, out_features=32, bias=True)
          (3): ELU(alpha=1.0)
          (4): Linear(in_features=32, out_features=3, bias=True)
        )
        (epkm): Sequential(
          (0): Linear(in_features=193, out_features=32, bias=True)
          (1): ELU(alpha=1.0)
          (2): Linear(in_features=32, out_features=32, bias=True)
          (3): ELU(alpha=1.0)
          (4): Linear(in_features=32, out_features=9, bias=True)
        )
        (evm): Sequential(
          (0): Linear(in_features=193, out_features=64, bias=True)
          (1): ELU(alpha=1.0)
          (2): Linear(in_features=64, out_features=64, bias=True)
          (3): ELU(alpha=1.0)
          (4): Linear(in_features=64, out_features=64, bias=True)
        )
        (qpm): Sequential(
          (0): Linear(in_features=64, out_features=32, bias=True)
          (1): ELU(alpha=1.0)
          (2): Linear(in_features=32, out_features=32, bias=True)
          (3): ELU(alpha=1.0)
          (4): Linear(in_features=32, out_features=32, bias=True)
        )
        (ppm): Sequential(
          (0): Linear(in_features=64, out_features=32, bias=False)
        )
      )
    )
    (11): StateUpdateLayer(
      (su): StateUpdate(
        (nqm): Sequential(
          (0): Linear(in_features=64, out_features=32, bias=True)
          (1): ELU(alpha=1.0)
          (2): Linear(in_features=32, out_features=32, bias=True)
          (3): ELU(alpha=1.0)
          (4): Linear(in_features=32, out_features=12, bias=True)
        )
        (eqkm): Sequential(
          (0): Linear(in_features=193, out_features=32, bias=True)
          (1): ELU(alpha=1.0)
          (2): Linear(in_features=32, out_features=32, bias=True)
          (3): ELU(alpha=1.0)
          (4): Linear(in_features=32, out_features=3, bias=True)
        )
        (epkm): Sequential(
          (0): Linear(in_features=193, out_features=32, bias=True)
          (1): ELU(alpha=1.0)
          (2): Linear(in_features=32, out_features=32, bias=True)
          (3): ELU(alpha=1.0)
          (4): Linear(in_features=32, out_features=9, bias=True)
        )
        (evm): Sequential(
          (0): Linear(in_features=193, out_features=64, bias=True)
          (1): ELU(alpha=1.0)
          (2): Linear(in_features=64, out_features=64, bias=True)
          (3): ELU(alpha=1.0)
          (4): Linear(in_features=64, out_features=64, bias=True)
        )
        (qpm): Sequential(
          (0): Linear(in_features=64, out_features=32, bias=True)
          (1): ELU(alpha=1.0)
          (2): Linear(in_features=32, out_features=32, bias=True)
          (3): ELU(alpha=1.0)
          (4): Linear(in_features=32, out_features=32, bias=True)
        )
        (ppm): Sequential(
          (0): Linear(in_features=64, out_features=32, bias=False)
        )
      )
    )
    (12): StateUpdateLayer(
      (su): StateUpdate(
        (nqm): Sequential(
          (0): Linear(in_features=64, out_features=32, bias=True)
          (1): ELU(alpha=1.0)
          (2): Linear(in_features=32, out_features=32, bias=True)
          (3): ELU(alpha=1.0)
          (4): Linear(in_features=32, out_features=12, bias=True)
        )
        (eqkm): Sequential(
          (0): Linear(in_features=193, out_features=32, bias=True)
          (1): ELU(alpha=1.0)
          (2): Linear(in_features=32, out_features=32, bias=True)
          (3): ELU(alpha=1.0)
          (4): Linear(in_features=32, out_features=3, bias=True)
        )
        (epkm): Sequential(
          (0): Linear(in_features=193, out_features=32, bias=True)
          (1): ELU(alpha=1.0)
          (2): Linear(in_features=32, out_features=32, bias=True)
          (3): ELU(alpha=1.0)
          (4): Linear(in_features=32, out_features=9, bias=True)
        )
        (evm): Sequential(
          (0): Linear(in_features=193, out_features=64, bias=True)
          (1): ELU(alpha=1.0)
          (2): Linear(in_features=64, out_features=64, bias=True)
          (3): ELU(alpha=1.0)
          (4): Linear(in_features=64, out_features=64, bias=True)
        )
        (qpm): Sequential(
          (0): Linear(in_features=64, out_features=32, bias=True)
          (1): ELU(alpha=1.0)
          (2): Linear(in_features=32, out_features=32, bias=True)
          (3): ELU(alpha=1.0)
          (4): Linear(in_features=32, out_features=32, bias=True)
        )
        (ppm): Sequential(
          (0): Linear(in_features=64, out_features=32, bias=False)
        )
      )
    )
    (13): StateUpdateLayer(
      (su): StateUpdate(
        (nqm): Sequential(
          (0): Linear(in_features=64, out_features=32, bias=True)
          (1): ELU(alpha=1.0)
          (2): Linear(in_features=32, out_features=32, bias=True)
          (3): ELU(alpha=1.0)
          (4): Linear(in_features=32, out_features=12, bias=True)
        )
        (eqkm): Sequential(
          (0): Linear(in_features=193, out_features=32, bias=True)
          (1): ELU(alpha=1.0)
          (2): Linear(in_features=32, out_features=32, bias=True)
          (3): ELU(alpha=1.0)
          (4): Linear(in_features=32, out_features=3, bias=True)
        )
        (epkm): Sequential(
          (0): Linear(in_features=193, out_features=32, bias=True)
          (1): ELU(alpha=1.0)
          (2): Linear(in_features=32, out_features=32, bias=True)
          (3): ELU(alpha=1.0)
          (4): Linear(in_features=32, out_features=9, bias=True)
        )
        (evm): Sequential(
          (0): Linear(in_features=193, out_features=64, bias=True)
          (1): ELU(alpha=1.0)
          (2): Linear(in_features=64, out_features=64, bias=True)
          (3): ELU(alpha=1.0)
          (4): Linear(in_features=64, out_features=64, bias=True)
        )
        (qpm): Sequential(
          (0): Linear(in_features=64, out_features=32, bias=True)
          (1): ELU(alpha=1.0)
          (2): Linear(in_features=32, out_features=32, bias=True)
          (3): ELU(alpha=1.0)
          (4): Linear(in_features=32, out_features=32, bias=True)
        )
        (ppm): Sequential(
          (0): Linear(in_features=64, out_features=32, bias=False)
        )
      )
    )
    (14): StateUpdateLayer(
      (su): StateUpdate(
        (nqm): Sequential(
          (0): Linear(in_features=64, out_features=32, bias=True)
          (1): ELU(alpha=1.0)
          (2): Linear(in_features=32, out_features=32, bias=True)
          (3): ELU(alpha=1.0)
          (4): Linear(in_features=32, out_features=12, bias=True)
        )
        (eqkm): Sequential(
          (0): Linear(in_features=193, out_features=32, bias=True)
          (1): ELU(alpha=1.0)
          (2): Linear(in_features=32, out_features=32, bias=True)
          (3): ELU(alpha=1.0)
          (4): Linear(in_features=32, out_features=3, bias=True)
        )
        (epkm): Sequential(
          (0): Linear(in_features=193, out_features=32, bias=True)
          (1): ELU(alpha=1.0)
          (2): Linear(in_features=32, out_features=32, bias=True)
          (3): ELU(alpha=1.0)
          (4): Linear(in_features=32, out_features=9, bias=True)
        )
        (evm): Sequential(
          (0): Linear(in_features=193, out_features=64, bias=True)
          (1): ELU(alpha=1.0)
          (2): Linear(in_features=64, out_features=64, bias=True)
          (3): ELU(alpha=1.0)
          (4): Linear(in_features=64, out_features=64, bias=True)
        )
        (qpm): Sequential(
          (0): Linear(in_features=64, out_features=32, bias=True)
          (1): ELU(alpha=1.0)
          (2): Linear(in_features=32, out_features=32, bias=True)
          (3): ELU(alpha=1.0)
          (4): Linear(in_features=32, out_features=32, bias=True)
        )
        (ppm): Sequential(
          (0): Linear(in_features=64, out_features=32, bias=False)
        )
      )
    )
    (15): StateUpdateLayer(
      (su): StateUpdate(
        (nqm): Sequential(
          (0): Linear(in_features=64, out_features=32, bias=True)
          (1): ELU(alpha=1.0)
          (2): Linear(in_features=32, out_features=32, bias=True)
          (3): ELU(alpha=1.0)
          (4): Linear(in_features=32, out_features=12, bias=True)
        )
        (eqkm): Sequential(
          (0): Linear(in_features=193, out_features=32, bias=True)
          (1): ELU(alpha=1.0)
          (2): Linear(in_features=32, out_features=32, bias=True)
          (3): ELU(alpha=1.0)
          (4): Linear(in_features=32, out_features=3, bias=True)
        )
        (epkm): Sequential(
          (0): Linear(in_features=193, out_features=32, bias=True)
          (1): ELU(alpha=1.0)
          (2): Linear(in_features=32, out_features=32, bias=True)
          (3): ELU(alpha=1.0)
          (4): Linear(in_features=32, out_features=9, bias=True)
        )
        (evm): Sequential(
          (0): Linear(in_features=193, out_features=64, bias=True)
          (1): ELU(alpha=1.0)
          (2): Linear(in_features=64, out_features=64, bias=True)
          (3): ELU(alpha=1.0)
          (4): Linear(in_features=64, out_features=64, bias=True)
        )
        (qpm): Sequential(
          (0): Linear(in_features=64, out_features=32, bias=True)
          (1): ELU(alpha=1.0)
          (2): Linear(in_features=32, out_features=32, bias=True)
          (3): ELU(alpha=1.0)
          (4): Linear(in_features=32, out_features=32, bias=True)
        )
        (ppm): Sequential(
          (0): Linear(in_features=64, out_features=32, bias=False)
        )
      )
    )
  )
  (spl): StatePoolLayer(
    (sam): Sequential(
      (0): Linear(in_features=64, out_features=32, bias=True)
      (1): ELU(alpha=1.0)
      (2): Linear(in_features=32, out_features=32, bias=True)
      (3): ELU(alpha=1.0)
      (4): Linear(in_features=32, out_features=8, bias=True)
    )
    (zdm): Sequential(
      (0): Linear(in_features=128, out_features=32, bias=True)
      (1): ELU(alpha=1.0)
      (2): Linear(in_features=32, out_features=32, bias=True)
      (3): ELU(alpha=1.0)
      (4): Linear(in_features=32, out_features=32, bias=True)
    )
    (zdm_vec): Sequential(
      (0): Linear(in_features=128, out_features=32, bias=False)
    )
  )
  (dm): Sequential(
    (0): Linear(in_features=64, out_features=32, bias=True)
    (1): ELU(alpha=1.0)
    (2): Linear(in_features=32, out_features=32, bias=True)
    (3): ELU(alpha=1.0)
    (4): Linear(in_features=32, out_features=5, bias=True)
  )
)
> 750525 parameters
Reloading model from save file
>>> Loading data
> training data size: 113805
> testing data size: 29786
>>> Starting training
  0%|          | 0/113805 [00:00<?, ?it/s]  0%|          | 1/113805 [00:01<37:02:06,  1.17s/it]  0%|          | 2/113805 [00:01<18:52:06,  1.68it/s]  0%|          | 3/113805 [00:01<13:17:57,  2.38it/s]
…
